…
 -1), 'qk_norm': True, 'cross_attn_norm': True, 'eps': 1e-06, 'sample_shift': 5.0, 'sample_steps': 50, 'sample_guide_scale': 5.0}
[2025-10-09 04:22:29,237] INFO: Input prompt: Two anthropomorphic cats in comfy boxing gear and bright gloves fight intensely on a spotlighted stage.
[2025-10-09 04:22:29,237] INFO: Creating WanTI2V pipeline.
[2025-10-09 04:23:26,062] INFO: loading ./Wan2.2-TI2V-5B/models_t5_umt5-xxl-enc-bf16.pth
[2025-10-09 04:23:38,153] INFO: loading ./Wan2.2-TI2V-5B/Wan2.2_VAE.pth
[2025-10-09 04:23:40,344] INFO: Creating WanModel from ./Wan2.2-TI2V-5B
WanModel(
  (patch_embedding): Conv3d(48, 3072, kernel_size=(1, 2, 2), stride=(1, 2, 2))
  (text_embedding): Sequential(
    (0): Linear(in_features=4096, out_features=3072, bias=True)
    (1): GELU(approximate='tanh')
    (2): Linear(in_features=3072, out_features=3072, bias=True)
  )
  (time_embedding): Sequential(
    (0): Linear(in_features=256, out_features=3072, bias=True)
    (1): SiLU()
    (2): Linear(in_features=3072, out_features=3072, bias=True)
  )
  (time_projection): Sequential(
    (0): SiLU()
    (1): Linear(in_features=3072, out_features=18432, bias=True)
  )
  (blocks): ModuleList(
    (0-29): 30 x WanAttentionBlock(
      (norm1): WanLayerNorm((3072,), eps=1e-06, elementwise_affine=False)
      (self_attn): WanSelfAttention(
        (q): Linear(in_features=3072, out_features=3072, bias=True)
        (k): Linear(in_features=3072, out_features=3072, bias=True)
        (v): Linear(in_features=3072, out_features=3072, bias=True)
        (o): Linear(in_features=3072, out_features=3072, bias=True)
        (norm_q): WanRMSNorm()
        (norm_k): WanRMSNorm()
      )
      (norm3): WanLayerNorm((3072,), eps=1e-06, elementwise_affine=True)
      (cross_attn): WanCrossAttention(
        (q): Linear(in_features=3072, out_features=3072, bias=True)
        (k): Linear(in_features=3072, out_features=3072, bias=True)
        (v): Linear(in_features=3072, out_features=3072, bias=True)
        (o): Linear(in_features=3072, out_features=3072, bias=True)
        (norm_q): WanRMSNorm()
        (norm_k): WanRMSNorm()
      )
      (norm2): WanLayerNorm((3072,), eps=1e-06, elementwise_affine=False)
      (ffn): Sequential(
        (0): Linear(in_features=3072, out_features=14336, bias=True)
        (1): GELU(approximate='tanh')
        (2): Linear(in_features=14336, out_features=3072, bias=True)
      )
    )
  )
  (head): Head(
    (norm): WanLayerNorm((3072,), eps=1e-06, elementwise_affine=False)
    (head): Linear(in_features=3072, out_features=192, bias=True)
  )
)
[2025-10-09 04:23:40,443] INFO: Generating video ...
	input shape 1, 27280, 24, 128
	qkv time: 11.290911674499512 ms
	attn time: 61.166656494140625 ms
	output time: 2.355168104171753 ms
self-attn time: 81.24092864990234 ms
cross-attn & ffn time: 32.2039680480957 ms
	input shape 1, 27280, 24, 128
	qkv time: 11.355008125305176 ms
	attn time: 51.475006103515625 ms
…
