…
 -1), 'qk_norm': True, 'cross_attn_norm': True, 'eps': 1e-06, 'sample_shift': 5.0, 'sample_steps': 50, 'sample_guide_scale': 5.0}
[2025-10-14 05:46:33,238] INFO: Input prompt: Two anthropomorphic cats in comfy boxing gear and bright gloves fight intensely on a spotlighted stage.
[2025-10-14 05:46:33,238] INFO: Creating WanTI2V pipeline.
[2025-10-14 05:47:31,873] INFO: loading ./Wan2.2-TI2V-5B/models_t5_umt5-xxl-enc-bf16.pth
[2025-10-14 05:47:43,761] INFO: loading ./Wan2.2-TI2V-5B/Wan2.2_VAE.pth
[2025-10-14 05:47:46,722] INFO: Creating WanModel from ./Wan2.2-TI2V-5B
WanModel(
  (patch_embedding): Conv3d(48, 3072, kernel_size=(1, 2, 2), stride=(1, 2, 2))
  (text_embedding): Sequential(
    (0): Linear(in_features=4096, out_features=3072, bias=True)
    (1): GELU(approximate='tanh')
    (2): Linear(in_features=3072, out_features=3072, bias=True)
  )
  (time_embedding): Sequential(
    (0): Linear(in_features=256, out_features=3072, bias=True)
    (1): SiLU()
    (2): Linear(in_features=3072, out_features=3072, bias=True)
  )
  (time_projection): Sequential(
    (0): SiLU()
    (1): Linear(in_features=3072, out_features=18432, bias=True)
  )
  (blocks): ModuleList(
    (0-29): 30 x WanAttentionBlock(
      (norm1): WanLayerNorm((3072,), eps=1e-06, elementwise_affine=False)
      (self_attn): WanSelfAttention(
        (q): Linear(in_features=3072, out_features=3072, bias=True)
        (k): Linear(in_features=3072, out_features=3072, bias=True)
        (v): Linear(in_features=3072, out_features=3072, bias=True)
        (o): Linear(in_features=3072, out_features=3072, bias=True)
        (norm_q): WanRMSNorm()
        (norm_k): WanRMSNorm()
      )
      (norm3): WanLayerNorm((3072,), eps=1e-06, elementwise_affine=True)
      (cross_attn): WanCrossAttention(
        (q): Linear(in_features=3072, out_features=3072, bias=True)
        (k): Linear(in_features=3072, out_features=3072, bias=True)
        (v): Linear(in_features=3072, out_features=3072, bias=True)
        (o): Linear(in_features=3072, out_features=3072, bias=True)
        (norm_q): WanRMSNorm()
        (norm_k): WanRMSNorm()
      )
      (norm2): WanLayerNorm((3072,), eps=1e-06, elementwise_affine=False)
      (ffn): Sequential(
        (0): Linear(in_features=3072, out_features=14336, bias=True)
        (1): GELU(approximate='tanh')
        (2): Linear(in_features=14336, out_features=3072, bias=True)
      )
    )
  )
  (head): Head(
    (norm): WanLayerNorm((3072,), eps=1e-06, elementwise_affine=False)
    (head): Linear(in_features=3072, out_features=192, bias=True)
  )
)
[2025-10-14 05:47:46,815] INFO: Generating video ...
[2025-10-14 05:47:46,815] INFO: Warming up the model ...
	input shape 1, 18480, 24, 128
	qkv time: 7.825407981872559 ms
	attn time: 30.471168518066406 ms
	output time: 1.6189440488815308 ms
self-attn time: 44.92595291137695 ms
cross-attn time: 6.87718391418457 ms
ffn time: 15.361023902893066 ms
…
